{"config": {"layers": [{"config": {"batch_input_shape": [null, 224, 224, 1], "sparse": false, "name": "input_3", "dtype": "float32"}, "inbound_nodes": [], "class_name": "InputLayer", "name": "input_3"}, {"config": {"bias_initializer": {"config": {}, "class_name": "Zeros"}, "dilation_rate": [1, 1], "name": "conv2d_57", "bias_regularizer": null, "filters": 16, "use_bias": true, "kernel_constraint": null, "kernel_initializer": {"config": {"mode": "fan_avg", "seed": null, "distribution": "uniform", "scale": 1.0}, "class_name": "VarianceScaling"}, "strides": [1, 1], "bias_constraint": null, "data_format": "channels_last", "activity_regularizer": null, "kernel_regularizer": null, "activation": "relu", "kernel_size": [3, 3], "padding": "same", "trainable": true}, "inbound_nodes": [[["input_3", 0, 0, {}]]], "class_name": "Conv2D", "name": "conv2d_57"}, {"config": {"name": "batch_normalization_45", "axis": -1, "trainable": true, "beta_constraint": null, "gamma_regularizer": null, "beta_regularizer": null, "gamma_constraint": null, "beta_initializer": {"config": {}, "class_name": "Zeros"}, "scale": true, "moving_variance_initializer": {"config": {}, "class_name": "Ones"}, "moving_mean_initializer": {"config": {}, "class_name": "Zeros"}, "momentum": 0.99, "center": true, "gamma_initializer": {"config": {}, "class_name": "Ones"}, "epsilon": 0.001}, "inbound_nodes": [[["conv2d_57", 0, 0, {}]]], "class_name": "BatchNormalization", "name": "batch_normalization_45"}, {"config": {"bias_initializer": {"config": {}, "class_name": "Zeros"}, "dilation_rate": [1, 1], "name": "conv2d_58", "bias_regularizer": null, "filters": 16, "use_bias": true, "kernel_constraint": null, "kernel_initializer": {"config": {"mode": "fan_avg", "seed": null, "distribution": "uniform", "scale": 1.0}, "class_name": "VarianceScaling"}, "strides": [1, 1], "bias_constraint": null, "data_format": "channels_last", "activity_regularizer": null, "kernel_regularizer": null, "activation": "relu", "kernel_size": [3, 3], "padding": "same", "trainable": true}, "inbound_nodes": [[["batch_normalization_45", 0, 0, {}]]], "class_name": "Conv2D", "name": "conv2d_58"}, {"config": {"name": "batch_normalization_46", "axis": -1, "trainable": true, "beta_constraint": null, "gamma_regularizer": null, "beta_regularizer": null, "gamma_constraint": null, "beta_initializer": {"config": {}, "class_name": "Zeros"}, "scale": true, "moving_variance_initializer": {"config": {}, "class_name": "Ones"}, "moving_mean_initializer": {"config": {}, "class_name": "Zeros"}, "momentum": 0.99, "center": true, "gamma_initializer": {"config": {}, "class_name": "Ones"}, "epsilon": 0.001}, "inbound_nodes": [[["conv2d_58", 0, 0, {}]]], "class_name": "BatchNormalization", "name": "batch_normalization_46"}, {"config": {"name": "max_pooling2d_11", "pool_size": [2, 2], "data_format": "channels_last", "padding": "valid", "strides": [2, 2], "trainable": true}, "inbound_nodes": [[["batch_normalization_46", 0, 0, {}]]], "class_name": "MaxPooling2D", "name": "max_pooling2d_11"}, {"config": {"bias_initializer": {"config": {}, "class_name": "Zeros"}, "dilation_rate": [1, 1], "name": "conv2d_59", "bias_regularizer": null, "filters": 32, "use_bias": true, "kernel_constraint": null, "kernel_initializer": {"config": {"mode": "fan_avg", "seed": null, "distribution": "uniform", "scale": 1.0}, "class_name": "VarianceScaling"}, "strides": [1, 1], "bias_constraint": null, "data_format": "channels_last", "activity_regularizer": null, "kernel_regularizer": null, "activation": "relu", "kernel_size": [3, 3], "padding": "same", "trainable": true}, "inbound_nodes": [[["max_pooling2d_11", 0, 0, {}]]], "class_name": "Conv2D", "name": "conv2d_59"}, {"config": {"name": "batch_normalization_47", "axis": -1, "trainable": true, "beta_constraint": null, "gamma_regularizer": null, "beta_regularizer": null, "gamma_constraint": null, "beta_initializer": {"config": {}, "class_name": "Zeros"}, "scale": true, "moving_variance_initializer": {"config": {}, "class_name": "Ones"}, "moving_mean_initializer": {"config": {}, "class_name": "Zeros"}, "momentum": 0.99, "center": true, "gamma_initializer": {"config": {}, "class_name": "Ones"}, "epsilon": 0.001}, "inbound_nodes": [[["conv2d_59", 0, 0, {}]]], "class_name": "BatchNormalization", "name": "batch_normalization_47"}, {"config": {"bias_initializer": {"config": {}, "class_name": "Zeros"}, "dilation_rate": [1, 1], "name": "conv2d_60", "bias_regularizer": null, "filters": 32, "use_bias": true, "kernel_constraint": null, "kernel_initializer": {"config": {"mode": "fan_avg", "seed": null, "distribution": "uniform", "scale": 1.0}, "class_name": "VarianceScaling"}, "strides": [1, 1], "bias_constraint": null, "data_format": "channels_last", "activity_regularizer": null, "kernel_regularizer": null, "activation": "relu", "kernel_size": [3, 3], "padding": "same", "trainable": true}, "inbound_nodes": [[["batch_normalization_47", 0, 0, {}]]], "class_name": "Conv2D", "name": "conv2d_60"}, {"config": {"name": "batch_normalization_48", "axis": -1, "trainable": true, "beta_constraint": null, "gamma_regularizer": null, "beta_regularizer": null, "gamma_constraint": null, "beta_initializer": {"config": {}, "class_name": "Zeros"}, "scale": true, "moving_variance_initializer": {"config": {}, "class_name": "Ones"}, "moving_mean_initializer": {"config": {}, "class_name": "Zeros"}, "momentum": 0.99, "center": true, "gamma_initializer": {"config": {}, "class_name": "Ones"}, "epsilon": 0.001}, "inbound_nodes": [[["conv2d_60", 0, 0, {}]]], "class_name": "BatchNormalization", "name": "batch_normalization_48"}, {"config": {"name": "max_pooling2d_12", "pool_size": [2, 2], "data_format": "channels_last", "padding": "valid", "strides": [2, 2], "trainable": true}, "inbound_nodes": [[["batch_normalization_48", 0, 0, {}]]], "class_name": "MaxPooling2D", "name": "max_pooling2d_12"}, {"config": {"bias_initializer": {"config": {}, "class_name": "Zeros"}, "dilation_rate": [1, 1], "name": "conv2d_61", "bias_regularizer": null, "filters": 64, "use_bias": true, "kernel_constraint": null, "kernel_initializer": {"config": {"mode": "fan_avg", "seed": null, "distribution": "uniform", "scale": 1.0}, "class_name": "VarianceScaling"}, "strides": [1, 1], "bias_constraint": null, "data_format": "channels_last", "activity_regularizer": null, "kernel_regularizer": null, "activation": "relu", "kernel_size": [3, 3], "padding": "same", "trainable": true}, "inbound_nodes": [[["max_pooling2d_12", 0, 0, {}]]], "class_name": "Conv2D", "name": "conv2d_61"}, {"config": {"name": "batch_normalization_49", "axis": -1, "trainable": true, "beta_constraint": null, "gamma_regularizer": null, "beta_regularizer": null, "gamma_constraint": null, "beta_initializer": {"config": {}, "class_name": "Zeros"}, "scale": true, "moving_variance_initializer": {"config": {}, "class_name": "Ones"}, "moving_mean_initializer": {"config": {}, "class_name": "Zeros"}, "momentum": 0.99, "center": true, "gamma_initializer": {"config": {}, "class_name": "Ones"}, "epsilon": 0.001}, "inbound_nodes": [[["conv2d_61", 0, 0, {}]]], "class_name": "BatchNormalization", "name": "batch_normalization_49"}, {"config": {"bias_initializer": {"config": {}, "class_name": "Zeros"}, "dilation_rate": [1, 1], "name": "conv2d_62", "bias_regularizer": null, "filters": 64, "use_bias": true, "kernel_constraint": null, "kernel_initializer": {"config": {"mode": "fan_avg", "seed": null, "distribution": "uniform", "scale": 1.0}, "class_name": "VarianceScaling"}, "strides": [1, 1], "bias_constraint": null, "data_format": "channels_last", "activity_regularizer": null, "kernel_regularizer": null, "activation": "relu", "kernel_size": [3, 3], "padding": "same", "trainable": true}, "inbound_nodes": [[["batch_normalization_49", 0, 0, {}]]], "class_name": "Conv2D", "name": "conv2d_62"}, {"config": {"name": "batch_normalization_50", "axis": -1, "trainable": true, "beta_constraint": null, "gamma_regularizer": null, "beta_regularizer": null, "gamma_constraint": null, "beta_initializer": {"config": {}, "class_name": "Zeros"}, "scale": true, "moving_variance_initializer": {"config": {}, "class_name": "Ones"}, "moving_mean_initializer": {"config": {}, "class_name": "Zeros"}, "momentum": 0.99, "center": true, "gamma_initializer": {"config": {}, "class_name": "Ones"}, "epsilon": 0.001}, "inbound_nodes": [[["conv2d_62", 0, 0, {}]]], "class_name": "BatchNormalization", "name": "batch_normalization_50"}, {"config": {"name": "max_pooling2d_13", "pool_size": [2, 2], "data_format": "channels_last", "padding": "valid", "strides": [2, 2], "trainable": true}, "inbound_nodes": [[["batch_normalization_50", 0, 0, {}]]], "class_name": "MaxPooling2D", "name": "max_pooling2d_13"}, {"config": {"bias_initializer": {"config": {}, "class_name": "Zeros"}, "dilation_rate": [1, 1], "name": "conv2d_63", "bias_regularizer": null, "filters": 128, "use_bias": true, "kernel_constraint": null, "kernel_initializer": {"config": {"mode": "fan_avg", "seed": null, "distribution": "uniform", "scale": 1.0}, "class_name": "VarianceScaling"}, "strides": [1, 1], "bias_constraint": null, "data_format": "channels_last", "activity_regularizer": null, "kernel_regularizer": null, "activation": "relu", "kernel_size": [3, 3], "padding": "same", "trainable": true}, "inbound_nodes": [[["max_pooling2d_13", 0, 0, {}]]], "class_name": "Conv2D", "name": "conv2d_63"}, {"config": {"name": "batch_normalization_51", "axis": -1, "trainable": true, "beta_constraint": null, "gamma_regularizer": null, "beta_regularizer": null, "gamma_constraint": null, "beta_initializer": {"config": {}, "class_name": "Zeros"}, "scale": true, "moving_variance_initializer": {"config": {}, "class_name": "Ones"}, "moving_mean_initializer": {"config": {}, "class_name": "Zeros"}, "momentum": 0.99, "center": true, "gamma_initializer": {"config": {}, "class_name": "Ones"}, "epsilon": 0.001}, "inbound_nodes": [[["conv2d_63", 0, 0, {}]]], "class_name": "BatchNormalization", "name": "batch_normalization_51"}, {"config": {"bias_initializer": {"config": {}, "class_name": "Zeros"}, "dilation_rate": [1, 1], "name": "conv2d_64", "bias_regularizer": null, "filters": 128, "use_bias": true, "kernel_constraint": null, "kernel_initializer": {"config": {"mode": "fan_avg", "seed": null, "distribution": "uniform", "scale": 1.0}, "class_name": "VarianceScaling"}, "strides": [1, 1], "bias_constraint": null, "data_format": "channels_last", "activity_regularizer": null, "kernel_regularizer": null, "activation": "relu", "kernel_size": [3, 3], "padding": "same", "trainable": true}, "inbound_nodes": [[["batch_normalization_51", 0, 0, {}]]], "class_name": "Conv2D", "name": "conv2d_64"}, {"config": {"name": "batch_normalization_52", "axis": -1, "trainable": true, "beta_constraint": null, "gamma_regularizer": null, "beta_regularizer": null, "gamma_constraint": null, "beta_initializer": {"config": {}, "class_name": "Zeros"}, "scale": true, "moving_variance_initializer": {"config": {}, "class_name": "Ones"}, "moving_mean_initializer": {"config": {}, "class_name": "Zeros"}, "momentum": 0.99, "center": true, "gamma_initializer": {"config": {}, "class_name": "Ones"}, "epsilon": 0.001}, "inbound_nodes": [[["conv2d_64", 0, 0, {}]]], "class_name": "BatchNormalization", "name": "batch_normalization_52"}, {"config": {"name": "max_pooling2d_14", "pool_size": [2, 2], "data_format": "channels_last", "padding": "valid", "strides": [2, 2], "trainable": true}, "inbound_nodes": [[["batch_normalization_52", 0, 0, {}]]], "class_name": "MaxPooling2D", "name": "max_pooling2d_14"}, {"config": {"bias_initializer": {"config": {}, "class_name": "Zeros"}, "dilation_rate": [1, 1], "name": "conv2d_65", "bias_regularizer": null, "filters": 256, "use_bias": true, "kernel_constraint": null, "kernel_initializer": {"config": {"mode": "fan_avg", "seed": null, "distribution": "uniform", "scale": 1.0}, "class_name": "VarianceScaling"}, "strides": [1, 1], "bias_constraint": null, "data_format": "channels_last", "activity_regularizer": null, "kernel_regularizer": null, "activation": "relu", "kernel_size": [3, 3], "padding": "same", "trainable": true}, "inbound_nodes": [[["max_pooling2d_14", 0, 0, {}]]], "class_name": "Conv2D", "name": "conv2d_65"}, {"config": {"name": "batch_normalization_53", "axis": -1, "trainable": true, "beta_constraint": null, "gamma_regularizer": null, "beta_regularizer": null, "gamma_constraint": null, "beta_initializer": {"config": {}, "class_name": "Zeros"}, "scale": true, "moving_variance_initializer": {"config": {}, "class_name": "Ones"}, "moving_mean_initializer": {"config": {}, "class_name": "Zeros"}, "momentum": 0.99, "center": true, "gamma_initializer": {"config": {}, "class_name": "Ones"}, "epsilon": 0.001}, "inbound_nodes": [[["conv2d_65", 0, 0, {}]]], "class_name": "BatchNormalization", "name": "batch_normalization_53"}, {"config": {"bias_initializer": {"config": {}, "class_name": "Zeros"}, "dilation_rate": [1, 1], "name": "conv2d_66", "bias_regularizer": null, "filters": 256, "use_bias": true, "kernel_constraint": null, "kernel_initializer": {"config": {"mode": "fan_avg", "seed": null, "distribution": "uniform", "scale": 1.0}, "class_name": "VarianceScaling"}, "strides": [1, 1], "bias_constraint": null, "data_format": "channels_last", "activity_regularizer": null, "kernel_regularizer": null, "activation": "relu", "kernel_size": [3, 3], "padding": "same", "trainable": true}, "inbound_nodes": [[["batch_normalization_53", 0, 0, {}]]], "class_name": "Conv2D", "name": "conv2d_66"}, {"config": {"name": "batch_normalization_54", "axis": -1, "trainable": true, "beta_constraint": null, "gamma_regularizer": null, "beta_regularizer": null, "gamma_constraint": null, "beta_initializer": {"config": {}, "class_name": "Zeros"}, "scale": true, "moving_variance_initializer": {"config": {}, "class_name": "Ones"}, "moving_mean_initializer": {"config": {}, "class_name": "Zeros"}, "momentum": 0.99, "center": true, "gamma_initializer": {"config": {}, "class_name": "Ones"}, "epsilon": 0.001}, "inbound_nodes": [[["conv2d_66", 0, 0, {}]]], "class_name": "BatchNormalization", "name": "batch_normalization_54"}, {"config": {"name": "max_pooling2d_15", "pool_size": [2, 2], "data_format": "channels_last", "padding": "valid", "strides": [2, 2], "trainable": true}, "inbound_nodes": [[["batch_normalization_54", 0, 0, {}]]], "class_name": "MaxPooling2D", "name": "max_pooling2d_15"}, {"config": {"bias_initializer": {"config": {}, "class_name": "Zeros"}, "dilation_rate": [1, 1], "name": "conv2d_67", "bias_regularizer": null, "filters": 512, "use_bias": true, "kernel_constraint": null, "kernel_initializer": {"config": {"mode": "fan_avg", "seed": null, "distribution": "uniform", "scale": 1.0}, "class_name": "VarianceScaling"}, "strides": [1, 1], "bias_constraint": null, "data_format": "channels_last", "activity_regularizer": null, "kernel_regularizer": null, "activation": "relu", "kernel_size": [3, 3], "padding": "same", "trainable": true}, "inbound_nodes": [[["max_pooling2d_15", 0, 0, {}]]], "class_name": "Conv2D", "name": "conv2d_67"}, {"config": {"name": "batch_normalization_55", "axis": -1, "trainable": true, "beta_constraint": null, "gamma_regularizer": null, "beta_regularizer": null, "gamma_constraint": null, "beta_initializer": {"config": {}, "class_name": "Zeros"}, "scale": true, "moving_variance_initializer": {"config": {}, "class_name": "Ones"}, "moving_mean_initializer": {"config": {}, "class_name": "Zeros"}, "momentum": 0.99, "center": true, "gamma_initializer": {"config": {}, "class_name": "Ones"}, "epsilon": 0.001}, "inbound_nodes": [[["conv2d_67", 0, 0, {}]]], "class_name": "BatchNormalization", "name": "batch_normalization_55"}, {"config": {"seed": null, "rate": 0.5, "name": "dropout_3", "noise_shape": null, "trainable": true}, "inbound_nodes": [[["batch_normalization_55", 0, 0, {}]]], "class_name": "Dropout", "name": "dropout_3"}, {"config": {"bias_initializer": {"config": {}, "class_name": "Zeros"}, "dilation_rate": [1, 1], "name": "conv2d_68", "bias_regularizer": null, "filters": 512, "use_bias": true, "kernel_constraint": null, "kernel_initializer": {"config": {"mode": "fan_avg", "seed": null, "distribution": "uniform", "scale": 1.0}, "class_name": "VarianceScaling"}, "strides": [1, 1], "bias_constraint": null, "data_format": "channels_last", "activity_regularizer": null, "kernel_regularizer": null, "activation": "relu", "kernel_size": [3, 3], "padding": "same", "trainable": true}, "inbound_nodes": [[["dropout_3", 0, 0, {}]]], "class_name": "Conv2D", "name": "conv2d_68"}, {"config": {"name": "batch_normalization_56", "axis": -1, "trainable": true, "beta_constraint": null, "gamma_regularizer": null, "beta_regularizer": null, "gamma_constraint": null, "beta_initializer": {"config": {}, "class_name": "Zeros"}, "scale": true, "moving_variance_initializer": {"config": {}, "class_name": "Ones"}, "moving_mean_initializer": {"config": {}, "class_name": "Zeros"}, "momentum": 0.99, "center": true, "gamma_initializer": {"config": {}, "class_name": "Ones"}, "epsilon": 0.001}, "inbound_nodes": [[["conv2d_68", 0, 0, {}]]], "class_name": "BatchNormalization", "name": "batch_normalization_56"}, {"config": {"data_format": "channels_last", "size": [2, 2], "name": "up_sampling2d_11", "trainable": true}, "inbound_nodes": [[["batch_normalization_56", 0, 0, {}]]], "class_name": "UpSampling2D", "name": "up_sampling2d_11"}, {"config": {"bias_initializer": {"config": {}, "class_name": "Zeros"}, "dilation_rate": [1, 1], "name": "conv2d_69", "bias_regularizer": null, "filters": 256, "use_bias": true, "kernel_constraint": null, "kernel_initializer": {"config": {"mode": "fan_avg", "seed": null, "distribution": "uniform", "scale": 1.0}, "class_name": "VarianceScaling"}, "strides": [1, 1], "bias_constraint": null, "data_format": "channels_last", "activity_regularizer": null, "kernel_regularizer": null, "activation": "relu", "kernel_size": [2, 2], "padding": "same", "trainable": true}, "inbound_nodes": [[["up_sampling2d_11", 0, 0, {}]]], "class_name": "Conv2D", "name": "conv2d_69"}, {"config": {"trainable": true, "axis": -1, "name": "concatenate_11"}, "inbound_nodes": [[["batch_normalization_54", 0, 0, {}], ["conv2d_69", 0, 0, {}]]], "class_name": "Concatenate", "name": "concatenate_11"}, {"config": {"bias_initializer": {"config": {}, "class_name": "Zeros"}, "dilation_rate": [1, 1], "name": "conv2d_70", "bias_regularizer": null, "filters": 256, "use_bias": true, "kernel_constraint": null, "kernel_initializer": {"config": {"mode": "fan_avg", "seed": null, "distribution": "uniform", "scale": 1.0}, "class_name": "VarianceScaling"}, "strides": [1, 1], "bias_constraint": null, "data_format": "channels_last", "activity_regularizer": null, "kernel_regularizer": null, "activation": "relu", "kernel_size": [3, 3], "padding": "same", "trainable": true}, "inbound_nodes": [[["concatenate_11", 0, 0, {}]]], "class_name": "Conv2D", "name": "conv2d_70"}, {"config": {"name": "batch_normalization_57", "axis": -1, "trainable": true, "beta_constraint": null, "gamma_regularizer": null, "beta_regularizer": null, "gamma_constraint": null, "beta_initializer": {"config": {}, "class_name": "Zeros"}, "scale": true, "moving_variance_initializer": {"config": {}, "class_name": "Ones"}, "moving_mean_initializer": {"config": {}, "class_name": "Zeros"}, "momentum": 0.99, "center": true, "gamma_initializer": {"config": {}, "class_name": "Ones"}, "epsilon": 0.001}, "inbound_nodes": [[["conv2d_70", 0, 0, {}]]], "class_name": "BatchNormalization", "name": "batch_normalization_57"}, {"config": {"bias_initializer": {"config": {}, "class_name": "Zeros"}, "dilation_rate": [1, 1], "name": "conv2d_71", "bias_regularizer": null, "filters": 256, "use_bias": true, "kernel_constraint": null, "kernel_initializer": {"config": {"mode": "fan_avg", "seed": null, "distribution": "uniform", "scale": 1.0}, "class_name": "VarianceScaling"}, "strides": [1, 1], "bias_constraint": null, "data_format": "channels_last", "activity_regularizer": null, "kernel_regularizer": null, "activation": "relu", "kernel_size": [3, 3], "padding": "same", "trainable": true}, "inbound_nodes": [[["batch_normalization_57", 0, 0, {}]]], "class_name": "Conv2D", "name": "conv2d_71"}, {"config": {"name": "batch_normalization_58", "axis": -1, "trainable": true, "beta_constraint": null, "gamma_regularizer": null, "beta_regularizer": null, "gamma_constraint": null, "beta_initializer": {"config": {}, "class_name": "Zeros"}, "scale": true, "moving_variance_initializer": {"config": {}, "class_name": "Ones"}, "moving_mean_initializer": {"config": {}, "class_name": "Zeros"}, "momentum": 0.99, "center": true, "gamma_initializer": {"config": {}, "class_name": "Ones"}, "epsilon": 0.001}, "inbound_nodes": [[["conv2d_71", 0, 0, {}]]], "class_name": "BatchNormalization", "name": "batch_normalization_58"}, {"config": {"data_format": "channels_last", "size": [2, 2], "name": "up_sampling2d_12", "trainable": true}, "inbound_nodes": [[["batch_normalization_58", 0, 0, {}]]], "class_name": "UpSampling2D", "name": "up_sampling2d_12"}, {"config": {"bias_initializer": {"config": {}, "class_name": "Zeros"}, "dilation_rate": [1, 1], "name": "conv2d_72", "bias_regularizer": null, "filters": 128, "use_bias": true, "kernel_constraint": null, "kernel_initializer": {"config": {"mode": "fan_avg", "seed": null, "distribution": "uniform", "scale": 1.0}, "class_name": "VarianceScaling"}, "strides": [1, 1], "bias_constraint": null, "data_format": "channels_last", "activity_regularizer": null, "kernel_regularizer": null, "activation": "relu", "kernel_size": [2, 2], "padding": "same", "trainable": true}, "inbound_nodes": [[["up_sampling2d_12", 0, 0, {}]]], "class_name": "Conv2D", "name": "conv2d_72"}, {"config": {"trainable": true, "axis": -1, "name": "concatenate_12"}, "inbound_nodes": [[["batch_normalization_52", 0, 0, {}], ["conv2d_72", 0, 0, {}]]], "class_name": "Concatenate", "name": "concatenate_12"}, {"config": {"bias_initializer": {"config": {}, "class_name": "Zeros"}, "dilation_rate": [1, 1], "name": "conv2d_73", "bias_regularizer": null, "filters": 128, "use_bias": true, "kernel_constraint": null, "kernel_initializer": {"config": {"mode": "fan_avg", "seed": null, "distribution": "uniform", "scale": 1.0}, "class_name": "VarianceScaling"}, "strides": [1, 1], "bias_constraint": null, "data_format": "channels_last", "activity_regularizer": null, "kernel_regularizer": null, "activation": "relu", "kernel_size": [3, 3], "padding": "same", "trainable": true}, "inbound_nodes": [[["concatenate_12", 0, 0, {}]]], "class_name": "Conv2D", "name": "conv2d_73"}, {"config": {"name": "batch_normalization_59", "axis": -1, "trainable": true, "beta_constraint": null, "gamma_regularizer": null, "beta_regularizer": null, "gamma_constraint": null, "beta_initializer": {"config": {}, "class_name": "Zeros"}, "scale": true, "moving_variance_initializer": {"config": {}, "class_name": "Ones"}, "moving_mean_initializer": {"config": {}, "class_name": "Zeros"}, "momentum": 0.99, "center": true, "gamma_initializer": {"config": {}, "class_name": "Ones"}, "epsilon": 0.001}, "inbound_nodes": [[["conv2d_73", 0, 0, {}]]], "class_name": "BatchNormalization", "name": "batch_normalization_59"}, {"config": {"bias_initializer": {"config": {}, "class_name": "Zeros"}, "dilation_rate": [1, 1], "name": "conv2d_74", "bias_regularizer": null, "filters": 128, "use_bias": true, "kernel_constraint": null, "kernel_initializer": {"config": {"mode": "fan_avg", "seed": null, "distribution": "uniform", "scale": 1.0}, "class_name": "VarianceScaling"}, "strides": [1, 1], "bias_constraint": null, "data_format": "channels_last", "activity_regularizer": null, "kernel_regularizer": null, "activation": "relu", "kernel_size": [3, 3], "padding": "same", "trainable": true}, "inbound_nodes": [[["batch_normalization_59", 0, 0, {}]]], "class_name": "Conv2D", "name": "conv2d_74"}, {"config": {"name": "batch_normalization_60", "axis": -1, "trainable": true, "beta_constraint": null, "gamma_regularizer": null, "beta_regularizer": null, "gamma_constraint": null, "beta_initializer": {"config": {}, "class_name": "Zeros"}, "scale": true, "moving_variance_initializer": {"config": {}, "class_name": "Ones"}, "moving_mean_initializer": {"config": {}, "class_name": "Zeros"}, "momentum": 0.99, "center": true, "gamma_initializer": {"config": {}, "class_name": "Ones"}, "epsilon": 0.001}, "inbound_nodes": [[["conv2d_74", 0, 0, {}]]], "class_name": "BatchNormalization", "name": "batch_normalization_60"}, {"config": {"data_format": "channels_last", "size": [2, 2], "name": "up_sampling2d_13", "trainable": true}, "inbound_nodes": [[["batch_normalization_60", 0, 0, {}]]], "class_name": "UpSampling2D", "name": "up_sampling2d_13"}, {"config": {"bias_initializer": {"config": {}, "class_name": "Zeros"}, "dilation_rate": [1, 1], "name": "conv2d_75", "bias_regularizer": null, "filters": 64, "use_bias": true, "kernel_constraint": null, "kernel_initializer": {"config": {"mode": "fan_avg", "seed": null, "distribution": "uniform", "scale": 1.0}, "class_name": "VarianceScaling"}, "strides": [1, 1], "bias_constraint": null, "data_format": "channels_last", "activity_regularizer": null, "kernel_regularizer": null, "activation": "relu", "kernel_size": [2, 2], "padding": "same", "trainable": true}, "inbound_nodes": [[["up_sampling2d_13", 0, 0, {}]]], "class_name": "Conv2D", "name": "conv2d_75"}, {"config": {"trainable": true, "axis": -1, "name": "concatenate_13"}, "inbound_nodes": [[["batch_normalization_50", 0, 0, {}], ["conv2d_75", 0, 0, {}]]], "class_name": "Concatenate", "name": "concatenate_13"}, {"config": {"bias_initializer": {"config": {}, "class_name": "Zeros"}, "dilation_rate": [1, 1], "name": "conv2d_76", "bias_regularizer": null, "filters": 64, "use_bias": true, "kernel_constraint": null, "kernel_initializer": {"config": {"mode": "fan_avg", "seed": null, "distribution": "uniform", "scale": 1.0}, "class_name": "VarianceScaling"}, "strides": [1, 1], "bias_constraint": null, "data_format": "channels_last", "activity_regularizer": null, "kernel_regularizer": null, "activation": "relu", "kernel_size": [3, 3], "padding": "same", "trainable": true}, "inbound_nodes": [[["concatenate_13", 0, 0, {}]]], "class_name": "Conv2D", "name": "conv2d_76"}, {"config": {"name": "batch_normalization_61", "axis": -1, "trainable": true, "beta_constraint": null, "gamma_regularizer": null, "beta_regularizer": null, "gamma_constraint": null, "beta_initializer": {"config": {}, "class_name": "Zeros"}, "scale": true, "moving_variance_initializer": {"config": {}, "class_name": "Ones"}, "moving_mean_initializer": {"config": {}, "class_name": "Zeros"}, "momentum": 0.99, "center": true, "gamma_initializer": {"config": {}, "class_name": "Ones"}, "epsilon": 0.001}, "inbound_nodes": [[["conv2d_76", 0, 0, {}]]], "class_name": "BatchNormalization", "name": "batch_normalization_61"}, {"config": {"bias_initializer": {"config": {}, "class_name": "Zeros"}, "dilation_rate": [1, 1], "name": "conv2d_77", "bias_regularizer": null, "filters": 64, "use_bias": true, "kernel_constraint": null, "kernel_initializer": {"config": {"mode": "fan_avg", "seed": null, "distribution": "uniform", "scale": 1.0}, "class_name": "VarianceScaling"}, "strides": [1, 1], "bias_constraint": null, "data_format": "channels_last", "activity_regularizer": null, "kernel_regularizer": null, "activation": "relu", "kernel_size": [3, 3], "padding": "same", "trainable": true}, "inbound_nodes": [[["batch_normalization_61", 0, 0, {}]]], "class_name": "Conv2D", "name": "conv2d_77"}, {"config": {"name": "batch_normalization_62", "axis": -1, "trainable": true, "beta_constraint": null, "gamma_regularizer": null, "beta_regularizer": null, "gamma_constraint": null, "beta_initializer": {"config": {}, "class_name": "Zeros"}, "scale": true, "moving_variance_initializer": {"config": {}, "class_name": "Ones"}, "moving_mean_initializer": {"config": {}, "class_name": "Zeros"}, "momentum": 0.99, "center": true, "gamma_initializer": {"config": {}, "class_name": "Ones"}, "epsilon": 0.001}, "inbound_nodes": [[["conv2d_77", 0, 0, {}]]], "class_name": "BatchNormalization", "name": "batch_normalization_62"}, {"config": {"data_format": "channels_last", "size": [2, 2], "name": "up_sampling2d_14", "trainable": true}, "inbound_nodes": [[["batch_normalization_62", 0, 0, {}]]], "class_name": "UpSampling2D", "name": "up_sampling2d_14"}, {"config": {"bias_initializer": {"config": {}, "class_name": "Zeros"}, "dilation_rate": [1, 1], "name": "conv2d_78", "bias_regularizer": null, "filters": 32, "use_bias": true, "kernel_constraint": null, "kernel_initializer": {"config": {"mode": "fan_avg", "seed": null, "distribution": "uniform", "scale": 1.0}, "class_name": "VarianceScaling"}, "strides": [1, 1], "bias_constraint": null, "data_format": "channels_last", "activity_regularizer": null, "kernel_regularizer": null, "activation": "relu", "kernel_size": [2, 2], "padding": "same", "trainable": true}, "inbound_nodes": [[["up_sampling2d_14", 0, 0, {}]]], "class_name": "Conv2D", "name": "conv2d_78"}, {"config": {"trainable": true, "axis": -1, "name": "concatenate_14"}, "inbound_nodes": [[["batch_normalization_48", 0, 0, {}], ["conv2d_78", 0, 0, {}]]], "class_name": "Concatenate", "name": "concatenate_14"}, {"config": {"bias_initializer": {"config": {}, "class_name": "Zeros"}, "dilation_rate": [1, 1], "name": "conv2d_79", "bias_regularizer": null, "filters": 32, "use_bias": true, "kernel_constraint": null, "kernel_initializer": {"config": {"mode": "fan_avg", "seed": null, "distribution": "uniform", "scale": 1.0}, "class_name": "VarianceScaling"}, "strides": [1, 1], "bias_constraint": null, "data_format": "channels_last", "activity_regularizer": null, "kernel_regularizer": null, "activation": "relu", "kernel_size": [3, 3], "padding": "same", "trainable": true}, "inbound_nodes": [[["concatenate_14", 0, 0, {}]]], "class_name": "Conv2D", "name": "conv2d_79"}, {"config": {"name": "batch_normalization_63", "axis": -1, "trainable": true, "beta_constraint": null, "gamma_regularizer": null, "beta_regularizer": null, "gamma_constraint": null, "beta_initializer": {"config": {}, "class_name": "Zeros"}, "scale": true, "moving_variance_initializer": {"config": {}, "class_name": "Ones"}, "moving_mean_initializer": {"config": {}, "class_name": "Zeros"}, "momentum": 0.99, "center": true, "gamma_initializer": {"config": {}, "class_name": "Ones"}, "epsilon": 0.001}, "inbound_nodes": [[["conv2d_79", 0, 0, {}]]], "class_name": "BatchNormalization", "name": "batch_normalization_63"}, {"config": {"bias_initializer": {"config": {}, "class_name": "Zeros"}, "dilation_rate": [1, 1], "name": "conv2d_80", "bias_regularizer": null, "filters": 32, "use_bias": true, "kernel_constraint": null, "kernel_initializer": {"config": {"mode": "fan_avg", "seed": null, "distribution": "uniform", "scale": 1.0}, "class_name": "VarianceScaling"}, "strides": [1, 1], "bias_constraint": null, "data_format": "channels_last", "activity_regularizer": null, "kernel_regularizer": null, "activation": "relu", "kernel_size": [3, 3], "padding": "same", "trainable": true}, "inbound_nodes": [[["batch_normalization_63", 0, 0, {}]]], "class_name": "Conv2D", "name": "conv2d_80"}, {"config": {"name": "batch_normalization_64", "axis": -1, "trainable": true, "beta_constraint": null, "gamma_regularizer": null, "beta_regularizer": null, "gamma_constraint": null, "beta_initializer": {"config": {}, "class_name": "Zeros"}, "scale": true, "moving_variance_initializer": {"config": {}, "class_name": "Ones"}, "moving_mean_initializer": {"config": {}, "class_name": "Zeros"}, "momentum": 0.99, "center": true, "gamma_initializer": {"config": {}, "class_name": "Ones"}, "epsilon": 0.001}, "inbound_nodes": [[["conv2d_80", 0, 0, {}]]], "class_name": "BatchNormalization", "name": "batch_normalization_64"}, {"config": {"data_format": "channels_last", "size": [2, 2], "name": "up_sampling2d_15", "trainable": true}, "inbound_nodes": [[["batch_normalization_64", 0, 0, {}]]], "class_name": "UpSampling2D", "name": "up_sampling2d_15"}, {"config": {"bias_initializer": {"config": {}, "class_name": "Zeros"}, "dilation_rate": [1, 1], "name": "conv2d_81", "bias_regularizer": null, "filters": 16, "use_bias": true, "kernel_constraint": null, "kernel_initializer": {"config": {"mode": "fan_avg", "seed": null, "distribution": "uniform", "scale": 1.0}, "class_name": "VarianceScaling"}, "strides": [1, 1], "bias_constraint": null, "data_format": "channels_last", "activity_regularizer": null, "kernel_regularizer": null, "activation": "relu", "kernel_size": [2, 2], "padding": "same", "trainable": true}, "inbound_nodes": [[["up_sampling2d_15", 0, 0, {}]]], "class_name": "Conv2D", "name": "conv2d_81"}, {"config": {"trainable": true, "axis": -1, "name": "concatenate_15"}, "inbound_nodes": [[["batch_normalization_46", 0, 0, {}], ["conv2d_81", 0, 0, {}]]], "class_name": "Concatenate", "name": "concatenate_15"}, {"config": {"bias_initializer": {"config": {}, "class_name": "Zeros"}, "dilation_rate": [1, 1], "name": "conv2d_82", "bias_regularizer": null, "filters": 16, "use_bias": true, "kernel_constraint": null, "kernel_initializer": {"config": {"mode": "fan_avg", "seed": null, "distribution": "uniform", "scale": 1.0}, "class_name": "VarianceScaling"}, "strides": [1, 1], "bias_constraint": null, "data_format": "channels_last", "activity_regularizer": null, "kernel_regularizer": null, "activation": "relu", "kernel_size": [3, 3], "padding": "same", "trainable": true}, "inbound_nodes": [[["concatenate_15", 0, 0, {}]]], "class_name": "Conv2D", "name": "conv2d_82"}, {"config": {"name": "batch_normalization_65", "axis": -1, "trainable": true, "beta_constraint": null, "gamma_regularizer": null, "beta_regularizer": null, "gamma_constraint": null, "beta_initializer": {"config": {}, "class_name": "Zeros"}, "scale": true, "moving_variance_initializer": {"config": {}, "class_name": "Ones"}, "moving_mean_initializer": {"config": {}, "class_name": "Zeros"}, "momentum": 0.99, "center": true, "gamma_initializer": {"config": {}, "class_name": "Ones"}, "epsilon": 0.001}, "inbound_nodes": [[["conv2d_82", 0, 0, {}]]], "class_name": "BatchNormalization", "name": "batch_normalization_65"}, {"config": {"bias_initializer": {"config": {}, "class_name": "Zeros"}, "dilation_rate": [1, 1], "name": "conv2d_83", "bias_regularizer": null, "filters": 16, "use_bias": true, "kernel_constraint": null, "kernel_initializer": {"config": {"mode": "fan_avg", "seed": null, "distribution": "uniform", "scale": 1.0}, "class_name": "VarianceScaling"}, "strides": [1, 1], "bias_constraint": null, "data_format": "channels_last", "activity_regularizer": null, "kernel_regularizer": null, "activation": "relu", "kernel_size": [3, 3], "padding": "same", "trainable": true}, "inbound_nodes": [[["batch_normalization_65", 0, 0, {}]]], "class_name": "Conv2D", "name": "conv2d_83"}, {"config": {"name": "batch_normalization_66", "axis": -1, "trainable": true, "beta_constraint": null, "gamma_regularizer": null, "beta_regularizer": null, "gamma_constraint": null, "beta_initializer": {"config": {}, "class_name": "Zeros"}, "scale": true, "moving_variance_initializer": {"config": {}, "class_name": "Ones"}, "moving_mean_initializer": {"config": {}, "class_name": "Zeros"}, "momentum": 0.99, "center": true, "gamma_initializer": {"config": {}, "class_name": "Ones"}, "epsilon": 0.001}, "inbound_nodes": [[["conv2d_83", 0, 0, {}]]], "class_name": "BatchNormalization", "name": "batch_normalization_66"}, {"config": {"bias_initializer": {"config": {}, "class_name": "Zeros"}, "dilation_rate": [1, 1], "name": "conv2d_84", "bias_regularizer": null, "filters": 1, "use_bias": true, "kernel_constraint": null, "kernel_initializer": {"config": {"mode": "fan_avg", "seed": null, "distribution": "uniform", "scale": 1.0}, "class_name": "VarianceScaling"}, "strides": [1, 1], "bias_constraint": null, "data_format": "channels_last", "activity_regularizer": null, "kernel_regularizer": null, "activation": "sigmoid", "kernel_size": [1, 1], "padding": "valid", "trainable": true}, "inbound_nodes": [[["batch_normalization_66", 0, 0, {}]]], "class_name": "Conv2D", "name": "conv2d_84"}], "output_layers": [["conv2d_84", 0, 0]], "name": "model_3", "input_layers": [["input_3", 0, 0]]}, "class_name": "Model", "backend": "tensorflow", "keras_version": "2.2.2"}